…
le":"Random initialization","text":"<p><pre><code>PRETRAINED_EMBEDDINGS = None\nFREEZE_EMBEDDINGS = False\n</code></pre> <pre><code># Initialize model\nmodel = CNN(\n    embedding_dim=EMBEDDING_DIM, vocab_size=VOCAB_SIZE,\n    num_filters=NUM_FILTERS, filter_sizes=FILTER_SIZES,\n    hidden_dim=HIDDEN_DIM, dropout_p=DROPOUT_P, num_classes=NUM_CLASSES,\n    pretrained_embeddings=PRETRAINED_EMBEDDINGS, freeze_embeddings=FREEZE_EMBEDDINGS)\nmodel = model.to(device) # set device\nprint (model.named_parameters)\n</code></pre></p> <pre>\n&lt;bound method Module.named_parameters of CNN(\n  (embeddings): Embedding(5000, 100, padding_idx=0)\n  (conv): ModuleList(\n    (0): Conv1d(100, 50, kernel_size=(1,), stride=(1,))\n    (1): Conv1d(100, 50, kernel_size=(2,), stride=(1,))\n    (2): Conv1d(100, 50, kernel_size=(3,), stride=(1,))\n  )\n  (dropout): Dropout(p=0.1, inplace=False)\n  (fc1): Linear(in_features=150, out_features=100, bias=True)\n  (fc2): Linear(in_features=100, out_features=4, bias=True)\n)&gt;\n</pre> <p><pre><code># Define Loss\nclass_weights_tensor = torch.Tensor(list(class_weights.values())).to(device)\nloss_fn = nn.CrossEntropyLoss(weight=class_weights_tensor)\n</code></pre> <pre><code># Define optimizer &amp; scheduler\noptimizer = Adam(model.parameters(), lr=LEARNING_RATE)\nscheduler = torch.optim.lr_scheduler.ReduceLROnPlateau(\n
…
ndevice = torch.device(\"cpu\")\nlabel_encoder = LabelEncoder.load(fp=Path(dir, \"label_encoder.json\"))\ntokenizer = Tokenizer.load(fp=Path(dir, \"tokenizer.json\"))\nmodel = CNN(\n    embedding_dim=EMBEDDING_DIM, vocab_size=VOCAB_SIZE,\n    num_filters=NUM_FILTERS, filter_sizes=FILTER_SIZES,\n    hidden_dim=HIDDEN_DIM, dropout_p=DROPOUT_P, num_classes=NUM_CLASSES,\n    pretrained_embeddings=PRETRAINED_EMBEDDINGS, freeze_embeddings=FREEZE_EMBEDDINGS)\nmodel.load_state_dict(torch.load(Path(dir, \"model.pt\"), map_location=device))\nmodel.to(device)\n</code></pre></p> <pre>\nCNN(\n  (embeddings): Embedding(5000, 100, padding_idx=0)\n  (conv): ModuleList(\n    (0): Conv1d(100, 50, kernel_size=(1,), stride=(1,))\n    (1): Conv1d(100, 50, kernel_size=(2,), stride=(1,))\n    (2): Conv1d(100, 50, kernel_size=(3,), stride=(1,))\n  )\n  (dropout): Dropout(p=0.1, inplace=False)\n  (fc1): Linear(in_features=150, out_features=100, bias=True)\n  (fc2): Linear(in_features=100, out_features=4, bias=True)\n)\n</pre> <p><pre><code># Initialize trainer\ntrainer = Trainer(model=model, device=device)\n</code></pre> <pre><code># Dataloader\ntext = \"The final tennis tournament starts next week.\"\nX = tokenizer.texts_to_sequences([preprocess(text)])\nprint (tokenizer.sequences_to_texts(X))\ny_filler = label_encoder.encode([label_encoder.classes[0]]*len(X))\nda
…
EDDINGS = embedding_matrix\nFREEZE_EMBEDDINGS = False\n</code></pre> <pre><code># Initialize model\ninterpretable_model = InterpretableCNN(\n    embedding_dim=EMBEDDING_DIM, vocab_size=VOCAB_SIZE,\n    num_filters=NUM_FILTERS, filter_sizes=FILTER_SIZES,\n    hidden_dim=HIDDEN_DIM, dropout_p=DROPOUT_P, num_classes=NUM_CLASSES,\n    pretrained_embeddings=PRETRAINED_EMBEDDINGS, freeze_embeddings=FREEZE_EMBEDDINGS)\ninterpretable_model.load_state_dict(torch.load(Path(dir, \"model.pt\"), map_location=device))\ninterpretable_model.to(device)\n</code></pre></p> <pre>\nInterpretableCNN(\n  (embeddings): Embedding(5000, 100, padding_idx=0)\n  (conv): ModuleList(\n    (0): Conv1d(100, 50, kernel_size=(1,), stride=(1,))\n    (1): Conv1d(100, 50, kernel_size=(2,), stride=(1,))\n    (2): Conv1d(100, 50, kernel_size=(3,), stride=(1,))\n  )\n  (dropout): Dropout(p=0.1, inplace=False)\n  (fc1): Linear(in_features=150, out_features=100, bias=True)\n  (fc2): Linear(in_features=100, out_features=4, bias=True)\n)\n</pre> <pre><code># Get conv outputs\ninterpretable_model.eval()\nconv_outputs = []\nwith torch.inference_mode():\n    for i, batch in enumerate(dataloader):\n\n        # Forward pass w/ inputs\n        inputs, targets = batch[:-1], batch[-1]\n        z = interpretable_model(inputs)\n\n        # Store conv outputs\n        conv_outputs.extend(z)\n\nc
…
ith the pooled output, but we could have just as easily worked with the sequential output (encoder representation for each sub-token) and applied a CNN (or other decoder options) on top of it.</p> <pre><code># Initialize model\ndropout_p = 0.5\nmodel = Transformer(\n    transformer=transformer, dropout_p=dropout_p,\n    embedding_dim=embedding_dim, num_classes=num_classes)\nmodel = model.to(device)\nprint (model.named_parameters)\n</code></pre> <pre>\n&lt;bound method Module.named_parameters of Transformer(\n  (transformer): BertModel(\n    (embeddings): BertEmbeddings(\n      (word_embeddings): Embedding(31090, 768, padding_idx=0)\n      (position_embeddings): Embedding(512, 768)\n      (token_type_embeddings): Embedding(2, 768)\n      (LayerNorm): LayerNorm((768,), eps=1e-12, elementwise_affine=True)\n      (dropout): Dropout(p=0.1, inplace=False)\n    )\n    (encoder): BertEncoder(\n      (layer): ModuleList(\n        (0): BertLayer(\n          (attention): BertAttention(\n            (self): BertSelfAttention(\n              (query): Linear(in_features=768, out_features=768, bias=True)\n              (key): Linear(in_features=768, out_features=768, bias=True)\n              (value): Linear(in_features=768, out_features=768, bias=True)\n              (dropout): Dropout(p=0.1, inplace=False)\n            )\n            (output): BertSelfOutput(\n              (dense): Linear(in_features=768, out_features=768, bias=True)\n              (LayerNorm): LayerNorm((768,), eps=1e-12, elementwise_affine=True)\n              (dropout): Dropout(p=0.1, inplace=False)\n            )\n          )\n          (intermediate): BertIntermediate(\n            (dense): Linear(in_features=768, out_features=3072, bias=True)\n          )\n          (output): BertOutput(\n            (dense): Linear(in_features=3072, out_features=768, bias=True)\n            (LayerNorm): LayerNorm((768,), eps=1e-12, elementwise_affine=True)\n            (dropout): Dropout(p=0.1, inplace=False)\n          )\n        )\n        (1): BertLayer(\n          (attention): BertAttention(\n            (self): BertSelfAttention(\n              (query): Linear(in_features=768, out_features=768, bias=True)\n              (key): Linear(in_features=768, out_features=768, bias=True)\n              (value): Linear(in_features=768, out_features=768, bias=True)\n              (dropout): Dropout(p=0.1, inplace=False)\n            )\n            (output): BertSelfOutput(\n              (dense): Linear(in_features=768, out_features=768, bias=True)\n              (LayerNorm): LayerNorm((768,), eps=1e-12, elementwise_affine=True)\n              (dropout): Dropout(p=0.1, inplace=False)\n            )\n          )\n          (intermediate): BertIntermediate(\n            (dense): Linear(in_features=768, out_features=3072, bias=True)\n          )\n          (output): BertOutput(\n            (dense): Linear(in_features=3072, out_features=768, bias=True)\n            (LayerNorm): LayerNorm((768,), eps=1e-12, elementwise_affine=True)\n            (dropout): Dropout(p=0.1, inplace=False)\n          )\n        )\n        ...\n        11 more BertLayers\n        ...\n      )\n    )\n    (pooler): BertPooler(\n      (dense): Linear(in_features=768, out_features=768, bias=True)\n      (activation): Tanh()\n    )\n  )\n  (dropout): Dropout(p=0.5, inplace=False)\n  (fc1): Linear(in_features=768, out_features=4, bias=True)\n)&gt;\n</pre>"},{"location":"courses/foundations/transformers/#training","title":"Training","text":"<pre><code># Arguments\nlr = 1e-4\nnum_epochs = 10\npatience = 10\n</code></pre> <pre><code># Define loss\nclass_weights_tensor = torch.Tensor(np.array(list(class_weights.values())))\nloss_fn = nn.BCEWithLogitsLoss(weight=class_weights_tensor)\n</code></p
…
lf(inputs)\n        y_pred = torch.argmax(z, dim=1).cpu().numpy()\n        return y_pred\n\n    @torch.inference_mode()\n    def predict_proba(self, batch):\n        self.eval()\n        z = self(batch)\n        y_probs = F.softmax(z).cpu().numpy()\n        return y_probs\n</code></pre> <p>Let's initialize our model and inspect its layers:</p> <pre><code># Initialize model\nmodel = FinetunedLLM(llm=llm, dropout_p=0.5, embedding_dim=embedding_dim, num_classes=num_classes)\nprint (model.named_parameters)\n</code></pre> <pre>\n(llm): BertModel(\n(embeddings): BertEmbeddings(\n    (word_embeddings): Embedding(31090, 768, padding_idx=0)\n    (position_embeddings): Embedding(512, 768)\n    (token_type_embeddings): Embedding(2, 768)\n    (LayerNorm): LayerNorm((768,), eps=1e-12, elementwise_affine=True)\n    (dropout): Dropout(p=0.1, inplace=False)\n)\n(encoder): BertEncoder(\n    (layer): ModuleList(\n    (0-11): 12 x BertLayer(\n        (attention): BertAttention(\n        (self): BertSelfAttention(\n            (query): Linear(in_features=768, out_features=768, bias=True)\n            (key): Linear(in_features=768, out_features=768, bias=True)\n            (value): Linear(in_features=768, out_features=768, bias=True)\n            (dropout): Dropout(p=0.1, inplace=False)\n        )\n        (output): BertSelfOutput(\n            (dense): Linear(in_features=768, out_features=768, bias=True)\n            (LayerNorm): LayerNorm((768,), eps=1e-12, elementwise_affine=True)\n            (dropout): Dropout(p=0.1, inplace=False)\n        )\n        )\n        (intermediate): BertIntermediate(\n        (dense): Linear(in_features=768, out_features=3072, bias=True)\n        (intermediate_act_fn): GELUActivation()\n        )\n        (output): BertOutput(\n        (dense): Linear(in_features=3072, out_features=768, bias=True)\n        (LayerNorm): LayerNorm((768,), eps=1e-12, elementwise_affine=True)\n        (dropout): Dropout(p=0.1, inplace=False)\n        )\n    )\n    )\n)\n(pooler): BertPooler(\n    (dense): Linear(in_features=768, out_features=768, bias=True)\n    (activation): Tanh()\n)\n)\n(dropout): Dropout(p=0.5, inplace=False)\n(fc1): Linear(in_features=768, out_features=4, bias=True)\n</pre>"},{"location":"courses/mlops/training/#batching","title":"Batching","text":"<p>We can iterate through our dataset in batches however we may have batches of different sizes. Recall that our tokenizer padded the inputs to the longest item in the batch (<code>padding=\"longest\"</code>). However, our batches for training will be smaller than our lar
…
